…
loading weight BatchNorm2d(1024, eps=1e-05, momentum=0.1, affine=True, track_running_stats=True)
loading weight Conv2d(512, 1024, kernel_size=(3, 3), stride=(1, 1), padding=(1, 1), bias=False)
loading weight BatchNorm2d(512, eps=1e-05, momentum=0.1, affine=True, track_running_stats=True)
loading weight Conv2d(1024, 512, kernel_size=(1, 1), stride=(1, 1), bias=False)
loading weight BatchNorm2d(1024, eps=1e-05, momentum=0.1, affine=True, track_running_stats=True)
loading weight Conv2d(512, 1024, kernel_size=(3, 3), stride=(1, 1), padding=(1, 1), bias=False)
Yolov3(
  (_Yolov3__backnone): Darknet53(
    (_Darknet53__conv): Convolutional(
      (_Convolutional__conv): Conv2d(3, 32, kernel_size=(3, 3), stride=(1, 1), padding=(1, 1), bias=False)
      (_Convolutional__norm): BatchNorm2d(32, eps=1e-05, momentum=0.1, affine=True, track_running_stats=True)
      (_Convolutional__activate): LeakyReLU(negative_slope=0.1, inplace=True)
    )
    (_Darknet53__conv_5_0): Convolutional(
      (_Convolutional__conv): Conv2d(32, 64, kernel_size=(3, 3), stride=(2, 2), padding=(1, 1), bias=False)
      (_Convolutional__norm): BatchNorm2d(64, eps=1e-05, momentum=0.1, affine=True, track_running_stats=True)
      (_Convolutional__activate): LeakyReLU(negative_slope=0.1, inplace=True)
    )
    (_Darknet53__rb_5_0): Residual_block(
      (_Residual_block__conv1): Convolutional(
        (_Convolutional__conv): Conv2d(64, 32, kernel_size=(1, 1), stride=(1, 1), bias=False)
        (_Convolutional__norm): BatchNorm2d(32, eps=1e-05, momentum=0.1, affine=True, track_running_stats=True)
        (_Convolutional__activate): LeakyReLU(negative_slope=0.1, inplace=True)
      )
      (_Residual_block__conv2): Convolutional(
        (_Convolutional__conv): Conv2d(32, 64, kernel_size=(3, 3), stride=(1, 1), padding=(1, 1), bias=False)
        (_Convolutional__norm): BatchNorm2d(64, eps=1e-05, momentum=0.1, affine=True, track_running_stats=True)
        (_Convolutional__activate): LeakyReLU(negative_slope=0.1, inplace=True)
      )
    )
    (_Darknet53__conv_5_1): Convolutional(
      (_Convolutional__conv): Conv2d(64, 128, kernel_size=(3, 3), stride=(2, 2), padding=(1, 1), bias=False)
      (_Convolutional__norm): BatchNorm2d(128, eps=1e-05, momentum=0.1, affine=True, track_running_stats=True)
      (_Convolutional__activate): LeakyReLU(negative_slope=0.1, inplace=True)
    )
    (_Darknet53__rb_5_1_0): Residual_block(
      (_Residual_block__conv1): Convolutional(
        (_Convolutional__conv): Conv2d(128, 64, kernel_size=(1, 1), stride=(1, 1), bias=False)
        (_Convolutional__norm): BatchNorm2d(64, eps=1e-05, momentum=0.1, affine=True, track_running_stats=True)
        (_Convolutional__activate): LeakyReLU(negative_slope=0.1, inplace=True)
      )
      (_Residual_block__conv2): Convolutional(
        (_Convolutional__conv): Conv2d(64, 128, kernel_size=(3, 3), stride=(1, 1), padding=(1, 1), bias=False)
        (_Convolutional__norm): BatchNorm2d(128, eps=1e-05, momentum=0.1, affine=True, track_running_stats=True)
        (_Convolutional__activate): LeakyReLU(negative_slope=0.1, inplace=True)
      )
    )
    (_Darknet53__rb_5_1_1): Residual_block(
      (_Residual_block__conv1): Convolutional(
        (_Convolutional__conv): Conv2d(128, 64, kernel_size=(1, 1), stride=(1, 1), bias=False)
        (_Convolutional__norm): BatchNorm2d(64, eps=1e-05, momentum=0.1, affine=True, track_running_stats=True)
        (_Convolutional__activate): LeakyReLU(negative_slope=0.1, inplace=True)
      )
      (_Residual_block__conv2): Convolutional(
        (_Convolutional__conv): Conv2d(64, 128, kernel_size=(3, 3), stride=(1, 1), padding=(1, 1), bias=False)
        (_Convolutional__norm): BatchNorm2d(128, eps=1e-05, momentum=0.1, affine=True, track_running_stats=True)
        (_Convolutional__activate): LeakyReLU(negative_slope=0.1, inplace=True)
      )
    )
    (_Darknet53__conv_5_2): Convolutional(
      (_Convolutional__conv): Conv2d(128, 256, kernel_size=(3, 3), stride=(2, 2), padding=(1, 1), bias=False)
      (_Convolutional__norm): BatchNorm2d(256, eps=1e-05, momentum=0.1, affine=True, track_running_stats=True)
      (_Convolutional__activate): LeakyReLU(negative_slope=0.1, inplace=True)
    )
    (_Darknet53__rb_5_2_0): Residual_block(
      (_Residual_block__conv1): Convolutional(
        (_Convolutional__conv): Conv2d(256, 128, kernel_size=(1, 1), stride=(1, 1), bias=False)
        (_Convolutional__norm): BatchNorm2d(128, eps=1e-05, momentum=0.1, affine=True, track_running_stats=True)
        (_Convolutional__activate): LeakyReLU(negative_slope=0.1, inplace=True)
      )
      (_Residual_block__conv2): Convolutional(
        (_Convolutional__conv): Conv2d(128, 256, kernel_size=(3, 3), stride=(1, 1), padding=(1, 1), bias=False)
        (_Convolutional__norm): BatchNorm2d(256, eps=1e-05, momentum=0.1, affine=True, track_running_stats=True)
        (_Convolutional__activate): LeakyReLU(negative_slope=0.1, inplace=True)
      )
    )
    (_Darknet53__rb_5_2_1): Residual_block(
      (_Residual_block__conv1): Convolutional(
        (_Convolutional__conv): Conv2d(256, 128, kernel_size=(1, 1), stride=(1, 1), bias=False)
        (_Convolutional__norm): BatchNorm2d(128, eps=1e-05, momentum=0.1, affine=True, track_running_stats=True)
        (_Convolutional__activate): LeakyReLU(negative_slope=0.1, inplace=True)
      )
      (_Residual_block__conv2): Convolutional(
        (_Convolutional__conv): Conv2d(128, 256, kernel_size=(3, 3), stride=(1, 1), padding=(1, 1), bias=False)
        (_Convolutional__norm): BatchNorm2d(256, eps=1e-05, momentum=0.1, affine=True, track_running_stats=True)
        (_Convolutional__activate): LeakyReLU(negative_slope=0.1, inplace=True)
      )
    )
    (_Darknet53__rb_5_2_2): Residual_block(
      (_Residual_block__conv1): Convolutional(
        (_Convolutional__conv): Conv2d(256, 128, kernel_size=(1, 1), stride=(1, 1), bias=False)
        (_Convolutional__norm): BatchNorm2d(128, eps=1e-05, momentum=0.1, affine=True, track_running_stats=True)
        (_Convolutional__activate): LeakyReLU(negative_slope=0.1, inplace=True)
      )
      (_Residual_block__conv2): Convolutional(
        (_Convolutional__conv): Conv2d(128, 256, kernel_size=(3, 3), stride=(1, 1), padding=(1, 1), bias=False)
        (_Convolutional__norm): BatchNorm2d(256, eps=1e-05, momentum=0.1, affine=True, track_running_stats=True)
        (_Convolutional__activate): LeakyReLU(negative_slope=0.1, inplace=True)
      )
    )
    (_Darknet53__rb_5_2_3): Residual_block(
      (_Residual_block__conv1): Convolutional(
        (_Convolutional__conv): Conv2d(256, 128, kernel_size=(1, 1), stride=(1, 1), bias=False)
        (_Convolutional__norm): BatchNorm2d(128, eps=1e-05, momentum=0.1, affine=True, track_running_stats=True)
        (_Convolutional__activate): LeakyReLU(negative_slope=0.1, inplace=True)
      )
      (_Residual_block__conv2): Convolutional(
        (_Convolutional__conv): Conv2d(128, 256, kernel_size=(3, 3), stride=(1, 1), padding=(1, 1), bias=False)
        (_Convolutional__norm): BatchNorm2d(256, eps=1e-05, momentum=0.1, affine=True, track_running_stats=True)
        (_Convolutional__activate): LeakyReLU(negative_slope=0.1, inplace=True)
      )
    )
    (_Darknet53__rb_5_2_4): Residual_block(
      (_Residual_block__conv1): Convolutional(
        (_Convolutional__conv): Conv2d(256, 128, kernel_size=(1, 1), stride=(1, 1), bias=False)
        (_Convolutional__norm): BatchNorm2d(128, eps=1e-05, momentum=0.1, affine=True, track_running_stats=True)
        (_Convolutional__activate): LeakyReLU(negative_slope=0.1, inplace=True)
      )
      (_Residual_block__conv2): Convolutional(
        (_Convolutional__conv): Conv2d(128, 256, kernel_size=(3, 3), stride=(1, 1), padding=(1, 1), bias=False)
        (_Convolutional__norm): BatchNorm2d(256, eps=1e-05, momentum=0.1, affine=True, track_running_stats=True)
        (_Convolutional__activate): LeakyReLU(negative_slope=0.1, inplace=True)
      )
    )
    (_Darknet53__rb_5_2_5): Residual_block(
      (_Residual_block__conv1): Convolutional(
        (_Convolutional__conv): Conv2d(256, 128, kernel_size=(1, 1), stride=(1, 1), bias=False)
        (_Convolutional__norm): BatchNorm2d(128, eps=1e-05, momentum=0.1, affine=True, track_running_stats=True)
        (_Convolutional__activate): LeakyReLU(negative_slope=0.1, inplace=True)
      )
      (_Residual_block__conv2): Convolutional(
        (_Convolutional__conv): Conv2d(128, 256, kernel_size=(3, 3), stride=(1, 1), padding=(1, 1), bias=False)
        (_Convolutional__norm): BatchNorm2d(256, eps=1e-05, momentum=0.1, affine=True, track_running_stats=True)
        (_Convolutional__activate): LeakyReLU(negative_slope=0.1, inplace=True)
      )
    )
    (_Darknet53__rb_5_2_6): Residual_block(
      (_Residual_block__conv1): Convolutional(
        (_Convolutional__conv): Conv2d(256, 128, kernel_size=(1, 1), stride=(1, 1), bias=False)
        (_Convolutional__norm): BatchNorm2d(128, eps=1e-05, momentum=0.1, affine=True, track_running_stats=True)
        (_Convolutional__activate): LeakyReLU(negative_slope=0.1, inplace=True)
      )
      (_Residual_block__conv2): Convolutional(
        (_Convolutional__conv): Conv2d(128, 256, kernel_size=(3, 3), stride=(1, 1), padding=(1, 1), bias=False)
        (_Convolutional__norm): BatchNorm2d(256, eps=1e-05, momentum=0.1, affine=True, track_running_stats=True)
        (_Convolutional__activate): LeakyReLU(negative_slope=0.1, inplace=True)
      )
    )
    (_Darknet53__rb_5_2_7): Residual_block(
      (_Residual_block__conv1): Convolutional(
        (_Convolutional__conv): Conv2d(256, 128, kernel_size=(1, 1), stride=(1, 1), bias=False)
        (_Convolutional__norm): BatchNorm2d(128, eps=1e-05, momentum=0.1, affine=True, track_running_stats=True)
        (_Convolutional__activate): LeakyReLU(negative_slope=0.1, inplace=True)
      )
      (_Residual_block__conv2): Convolutional(
        (_Convolutional__conv): Conv2d(128, 256, kernel_size=(3, 3), stride=(1, 1), padding=(1, 1), bias=False)
        (_Convolutional__norm): BatchNorm2d(256, eps=1e-05, momentum=0.1, affine=True, track_running_stats=True)
        (_Convolutional__activate): LeakyReLU(negative_slope=0.1, inplace=True)
      )
    )
    (_Darknet53__conv_5_3): Convolutional(
      (_Convolutional__conv): Conv2d(256, 512, kernel_size=(3, 3), stride=(2, 2), padding=(1, 1), bias=False)
      (_Convolutional__norm): BatchNorm2d(512, eps=1e-05, momentum=0.1, affine=True, track_running_stats=True)
      (_Convolutional__activate): LeakyReLU(negative_slope=0.1, inplace=True)
    )
    (_Darknet53__rb_5_3_0): Residual_block(
      (_Residual_block__conv1): Convolutional(
        (_Convolutional__conv): Conv2d(512, 256, kernel_size=(1, 1), stride=(1, 1), bias=False)
        (_Convolutional__norm): BatchNorm2d(256, eps=1e-05, momentum=0.1, affine=True, track_running_stats=True)
        (_Convolutional__activate): LeakyReLU(negative_slope=0.1, inplace=True)
      )
      (_Residual_block__conv2): Convolutional(
        (_Convolutional__conv): Conv2d(256, 512, kernel_size=(3, 3), stride=(1, 1), padding=(1, 1), bias=False)
        (_Convolutional__norm): BatchNorm2d(512, eps=1e-05, momentum=0.1, affine=True, track_running_stats=True)
        (_Convolutional__activate): LeakyReLU(negative_slope=0.1, inplace=True)
      )
    )
    (_Darknet53__rb_5_3_1): Residual_block(
      (_Residual_block__conv1): Convolutional(
        (_Convolutional__conv): Conv2d(512, 256, kernel_size=(1, 1), stride=(1, 1), bias=False)
        (_Convolutional__norm): BatchNorm2d(256, eps=1e-05, momentum=0.1, affine=True, track_running_stats=True)
        (_Convolutional__activate): LeakyReLU(negative_slope=0.1, inplace=True)
      )
      (_Residual_block__conv2): Convolutional(
        (_Convolutional__conv): Conv2d(256, 512, kernel_size=(3, 3), stride=(1, 1), padding=(1, 1), bias=False)
        (_Convolutional__norm): BatchNorm2d(512, eps=1e-05, momentum=0.1, affine=True, track_running_stats=True)
        (_Convolutional__activate): LeakyReLU(negative_slope=0.1, inplace=True)
      )
    )
    (_Darknet53__rb_5_3_2): Residual_block(
      (_Residual_block__conv1): Convolutional(
        (_Convolutional__conv): Conv2d(512, 256, kernel_size=(1, 1), stride=(1, 1), bias=False)
        (_Convolutional__norm): BatchNorm2d(256, eps=1e-05, momentum=0.1, affine=True, track_running_stats=True)
        (_Convolutional__activate): LeakyReLU(negative_slope=0.1, inplace=True)
      )
      (_Residual_block__conv2): Convolutional(
        (_Convolutional__conv): Conv2d(256, 512, kernel_size=(3, 3), stride=(1, 1), padding=(1, 1), bias=False)
        (_Convolutional__norm): BatchNorm2d(512, eps=1e-05, momentum=0.1, affine=True, track_running_stats=True)
        (_Convolutional__activate): LeakyReLU(negative_slope=0.1, inplace=True)
      )
    )
    (_Darknet53__rb_5_3_3): Residual_block(
      (_Residual_block__conv1): Convolutional(
        (_Convolutional__conv): Conv2d(512, 256, kernel_size=(1, 1), stride=(1, 1), bias=False)
        (_Convolutional__norm): BatchNorm2d(256, eps=1e-05, momentum=0.1, affine=True, track_running_stats=True)
        (_Convolutional__activate): LeakyReLU(negative_slope=0.1, inplace=True)
      )
      (_Residual_block__conv2): Convolutional(
        (_Convolutional__conv): Conv2d(256, 512, kernel_size=(3, 3), stride=(1, 1), padding=(1, 1), bias=False)
        (_Convolutional__norm): BatchNorm2d(512, eps=1e-05, momentum=0.1, affine=True, track_running_stats=True)
        (_Convolutional__activate): LeakyReLU(negative_slope=0.1, inplace=True)
      )
    )
    (_Darknet53__rb_5_3_4): Residual_block(
      (_Residual_block__conv1): Convolutional(
        (_Convolutional__conv): Conv2d(512, 256, kernel_size=(1, 1), stride=(1, 1), bias=False)
        (_Convolutional__norm): BatchNorm2d(256, eps=1e-05, momentum=0.1, affine=True, track_running_stats=True)
        (_Convolutional__activate): LeakyReLU(negative_slope=0.1, inplace=True)
      )
      (_Residual_block__conv2): Convolutional(
        (_Convolutional__conv): Conv2d(256, 512, kernel_size=(3, 3), stride=(1, 1), padding=(1, 1), bias=False)
        (_Convolutional__norm): BatchNorm2d(512, eps=1e-05, momentum=0.1, affine=True, track_running_stats=True)
        (_Convolutional__activate): LeakyReLU(negative_slope=0.1, inplace=True)
      )
    )
    (_Darknet53__rb_5_3_5): Residual_block(
      (_Residual_block__conv1): Convolutional(
        (_Convolutional__conv): Conv2d(512, 256, kernel_size=(1, 1), stride=(1, 1), bias=False)
        (_Convolutional__norm): BatchNorm2d(256, eps=1e-05, momentum=0.1, affine=True, track_running_stats=True)
        (_Convolutional__activate): LeakyReLU(negative_slope=0.1, inplace=True)
      )
      (_Residual_block__conv2): Convolutional(
        (_Convolutional__conv): Conv2d(256, 512, kernel_size=(3, 3), stride=(1, 1), padding=(1, 1), bias=False)
        (_Convolutional__norm): BatchNorm2d(512, eps=1e-05, momentum=0.1, affine=True, track_running_stats=True)
        (_Convolutional__activate): LeakyReLU(negative_slope=0.1, inplace=True)
      )
    )
    (_Darknet53__rb_5_3_6): Residual_block(
      (_Residual_block__conv1): Convolutional(
        (_Convolutional__conv): Conv2d(512, 256, kernel_size=(1, 1), stride=(1, 1), bias=False)
        (_Convolutional__norm): BatchNorm2d(256, eps=1e-05, momentum=0.1, affine=True, track_running_stats=True)
        (_Convolutional__activate): LeakyReLU(negative_slope=0.1, inplace=True)
      )
      (_Residual_block__conv2): Convolutional(
        (_Convolutional__conv): Conv2d(256, 512, kernel_size=(3, 3), stride=(1, 1), padding=(1, 1), bias=False)
        (_Convolutional__norm): BatchNorm2d(512, eps=1e-05, momentum=0.1, affine=True, track_running_stats=True)
        (_Convolutional__activate): LeakyReLU(negative_slope=0.1, inplace=True)
      )
    )
    (_Darknet53__rb_5_3_7): Residual_block(
      (_Residual_block__conv1): Convolutional(
        (_Convolutional__conv): Conv2d(512, 256, kernel_size=(1, 1), stride=(1, 1), bias=False)
        (_Convolutional__norm): BatchNorm2d(256, eps=1e-05, momentum=0.1, affine=True, track_running_stats=True)
        (_Convolutional__activate): LeakyReLU(negative_slope=0.1, inplace=True)
      )
      (_Residual_block__conv2): Convolutional(
        (_Convolutional__conv): Conv2d(256, 512, kernel_size=(3, 3), stride=(1, 1), padding=(1, 1), bias=False)
        (_Convolutional__norm): BatchNorm2d(512, eps=1e-05, momentum=0.1, affine=True, track_running_stats=True)
        (_Convolutional__activate): LeakyReLU(negative_slope=0.1, inplace=True)
      )
    )
    (_Darknet53__conv_5_4): Convolutional(
      (_Convolutional__conv): Conv2d(512, 1024, kernel_size=(3, 3), stride=(2, 2), padding=(1, 1), bias=False)
      (_Convolutional__norm): BatchNorm2d(1024, eps=1e-05, momentum=0.1, affine=True, track_running_stats=True)
      (_Convolutional__activate): LeakyReLU(negative_slope=0.1, inplace=True)
    )
    (_Darknet53__rb_5_4_0): Residual_block(
      (_Residual_block__conv1): Convolutional(
        (_Convolutional__conv): Conv2d(1024, 512, kernel_size=(1, 1), stride=(1, 1), bias=False)
        (_Convolutional__norm): BatchNorm2d(512, eps=1e-05, momentum=0.1, affine=True, track_running_stats=True)
        (_Convolutional__activate): LeakyReLU(negative_slope=0.1, inplace=True)
      )
      (_Residual_block__conv2): Convolutional(
        (_Convolutional__conv): Conv2d(512, 1024, kernel_size=(3, 3), stride=(1, 1), padding=(1, 1), bias=False)
        (_Convolutional__norm): BatchNorm2d(1024, eps=1e-05, momentum=0.1, affine=True, track_running_stats=True)
        (_Convolutional__activate): LeakyReLU(negative_slope=0.1, inplace=True)
      )
    )
    (_Darknet53__rb_5_4_1): Residual_block(
      (_Residual_block__conv1): Convolutional(
        (_Convolutional__conv): Conv2d(1024, 512, kernel_size=(1, 1), stride=(1, 1), bias=False)
        (_Convolutional__norm): BatchNorm2d(512, eps=1e-05, momentum=0.1, affine=True, track_running_stats=True)
        (_Convolutional__activate): LeakyReLU(negative_slope=0.1, inplace=True)
      )
      (_Residual_block__conv2): Convolutional(
        (_Convolutional__conv): Conv2d(512, 1024, kernel_size=(3, 3), stride=(1, 1), padding=(1, 1), bias=False)
        (_Convolutional__norm): BatchNorm2d(1024, eps=1e-05, momentum=0.1, affine=True, track_running_stats=True)
        (_Convolutional__activate): LeakyReLU(negative_slope=0.1, inplace=True)
      )
    )
    (_Darknet53__rb_5_4_2): Residual_block(
      (_Residual_block__conv1): Convolutional(
        (_Convolutional__conv): Conv2d(1024, 512, kernel_size=(1, 1), stride=(1, 1), bias=False)
        (_Convolutional__norm): BatchNorm2d(512, eps=1e-05, momentum=0.1, affine=True, track_running_stats=True)
        (_Convolutional__activate): LeakyReLU(negative_slope=0.1, inplace=True)
      )
      (_Residual_block__conv2): Convolutional(
        (_Convolutional__conv): Conv2d(512, 1024, kernel_size=(3, 3), stride=(1, 1), padding=(1, 1), bias=False)
        (_Convolutional__norm): BatchNorm2d(1024, eps=1e-05, momentum=0.1, affine=True, track_running_stats=True)
        (_Convolutional__activate): LeakyReLU(negative_slope=0.1, inplace=True)
      )
    )
    (_Darknet53__rb_5_4_3): Residual_block(
      (_Residual_block__conv1): Convolutional(
        (_Convolutional__conv): Conv2d(1024, 512, kernel_size=(1, 1), stride=(1, 1), bias=False)
        (_Convolutional__norm): BatchNorm2d(512, eps=1e-05, momentum=0.1, affine=True, track_running_stats=True)
        (_Convolutional__activate): LeakyReLU(negative_slope=0.1, inplace=True)
      )
      (_Residual_block__conv2): Convolutional(
        (_Convolutional__conv): Conv2d(512, 1024, kernel_size=(3, 3), stride=(1, 1), padding=(1, 1), bias=False)
        (_Convolutional__norm): BatchNorm2d(1024, eps=1e-05, momentum=0.1, affine=True, track_running_stats=True)
        (_Convolutional__activate): LeakyReLU(negative_slope=0.1, inplace=True)
      )
    )
  )
  (_Yolov3__fpn): FPN_YOLOV3(
    (_FPN_YOLOV3__conv_set_0): Sequential(
      (0): Convolutional(
        (_Convolutional__conv): Conv2d(1024, 512, kernel_size=(1, 1), stride=(1, 1), bias=False)
        (_Convolutional__norm): BatchNorm2d(512, eps=1e-05, momentum=0.1, affine=True, track_running_stats=True)
        (_Convolutional__activate): LeakyReLU(negative_slope=0.1, inplace=True)
      )
      (1): Convolutional(
        (_Convolutional__conv): Conv2d(512, 1024, kernel_size=(3, 3), stride=(1, 1), padding=(1, 1), bias=False)
        (_Convolutional__norm): BatchNorm2d(1024, eps=1e-05, momentum=0.1, affine=True, track_running_stats=True)
        (_Convolutional__activate): LeakyReLU(negative_slope=0.1, inplace=True)
      )
      (2): Convolutional(
        (_Convolutional__conv): Conv2d(1024, 512, kernel_size=(1, 1), stride=(1, 1), bias=False)
        (_Convolutional__norm): BatchNorm2d(512, eps=1e-05, momentum=0.1, affine=True, track_running_stats=True)
        (_Convolutional__activate): LeakyReLU(negative_slope=0.1, inplace=True)
      )
      (3): Convolutional(
        (_Convolutional__conv): Conv2d(512, 1024, kernel_size=(3, 3), stride=(1, 1), padding=(1, 1), bias=False)
        (_Convolutional__norm): BatchNorm2d(1024, eps=1e-05, momentum=0.1, affine=True, track_running_stats=True)
        (_Convolutional__activate): LeakyReLU(negative_slope=0.1, inplace=True)
      )
      (4): Convolutional(
        (_Convolutional__conv): Conv2d(1024, 512, kernel_size=(1, 1), stride=(1, 1), bias=False)
        (_Convolutional__norm): BatchNorm2d(512, eps=1e-05, momentum=0.1, affine=True, track_running_stats=True)
        (_Convolutional__activate): LeakyReLU(negative_slope=0.1, inplace=True)
      )
    )
    (_FPN_YOLOV3__conv0_0): Convolutional(
      (_Convolutional__conv): Conv2d(512, 1024, kernel_size=(3, 3), stride=(1, 1), padding=(1, 1), bias=False)
      (_Convolutional__norm): BatchNorm2d(1024, eps=1e-05, momentum=0.1, affine=True, track_running_stats=True)
      (_Convolutional__activate): LeakyReLU(negative_slope=0.1, inplace=True)
    )
    (_FPN_YOLOV3__conv0_1): Convolutional(
      (_Convolutional__conv): Conv2d(1024, 75, kernel_size=(1, 1), stride=(1, 1))
    )
    (_FPN_YOLOV3__conv0): Convolutional(
      (_Convolutional__conv): Conv2d(512, 256, kernel_size=(1, 1), stride=(1, 1), bias=False)
      (_Convolutional__norm): BatchNorm2d(256, eps=1e-05, momentum=0.1, affine=True, track_running_stats=True)
      (_Convolutional__activate): LeakyReLU(negative_slope=0.1, inplace=True)
    )
    (_FPN_YOLOV3__upsample0): Upsample()
    (_FPN_YOLOV3__route0): Route()
    (_FPN_YOLOV3__conv_set_1): Sequential(
      (0): Convolutional(
        (_Convolutional__conv): Conv2d(768, 256, kernel_size=(1, 1), stride=(1, 1), bias=False)
        (_Convolutional__norm): BatchNorm2d(256, eps=1e-05, momentum=0.1, affine=True, track_running_stats=True)
        (_Convolutional__activate): LeakyReLU(negative_slope=0.1, inplace=True)
      )
      (1): Convolutional(
        (_Convolutional__conv): Conv2d(256, 512, kernel_size=(3, 3), stride=(1, 1), padding=(1, 1), bias=False)
        (_Convolutional__norm): BatchNorm2d(512, eps=1e-05, momentum=0.1, affine=True, track_running_stats=True)
        (_Convolutional__activate): LeakyReLU(negative_slope=0.1, inplace=True)
      )
      (2): Convolutional(
        (_Convolutional__conv): Conv2d(512, 256, kernel_size=(1, 1), stride=(1, 1), bias=False)
        (_Convolutional__norm): BatchNorm2d(256, eps=1e-05, momentum=0.1, affine=True, track_running_stats=True)
        (_Convolutional__activate): LeakyReLU(negative_slope=0.1, inplace=True)
      )
      (3): Convolutional(
        (_Convolutional__conv): Conv2d(256, 512, kernel_size=(3, 3), stride=(1, 1), padding=(1, 1), bias=False)
        (_Convolutional__norm): BatchNorm2d(512, eps=1e-05, momentum=0.1, affine=True, track_running_stats=True)
        (_Convolutional__activate): LeakyReLU(negative_slope=0.1, inplace=True)
      )
      (4): Convolutional(
        (_Convolutional__conv): Conv2d(512, 256, kernel_size=(1, 1), stride=(1, 1), bias=False)
        (_Convolutional__norm): BatchNorm2d(256, eps=1e-05, momentum=0.1, affine=True, track_running_stats=True)
        (_Convolutional__activate): LeakyReLU(negative_slope=0.1, inplace=True)
      )
    )
    (_FPN_YOLOV3__conv1_0): Convolutional(
      (_Convolutional__conv): Conv2d(256, 512, kernel_size=(3, 3), stride=(1, 1), padding=(1, 1), bias=False)
      (_Convolutional__norm): BatchNorm2d(512, eps=1e-05, momentum=0.1, affine=True, track_running_stats=True)
      (_Convolutional__activate): LeakyReLU(negative_slope=0.1, inplace=True)
    )
    (_FPN_YOLOV3__conv1_1): Convolutional(
      (_Convolutional__conv): Conv2d(512, 75, kernel_size=(1, 1), stride=(1, 1))
    )
    (_FPN_YOLOV3__conv1): Convolutional(
      (_Convolutional__conv): Conv2d(256, 128, kernel_size=(1, 1), stride=(1, 1), bias=False)
      (_Convolutional__norm): BatchNorm2d(128, eps=1e-05, momentum=0.1, affine=True, track_running_stats=True)
      (_Convolutional__activate): LeakyReLU(negative_slope=0.1, inplace=True)
    )
    (_FPN_YOLOV3__upsample1): Upsample()
    (_FPN_YOLOV3__route1): Route()
    (_FPN_YOLOV3__conv_set_2): Sequential(
      (0): Convolutional(
        (_Convolutional__conv): Conv2d(384, 128, kernel_size=(1, 1), stride=(1, 1), bias=False)
        (_Convolutional__norm): BatchNorm2d(128, eps=1e-05, momentum=0.1, affine=True, track_running_stats=True)
        (_Convolutional__activate): LeakyReLU(negative_slope=0.1, inplace=True)
      )
      (1): Convolutional(
        (_Convolutional__conv): Conv2d(128, 256, kernel_size=(3, 3), stride=(1, 1), padding=(1, 1), bias=False)
        (_Convolutional__norm): BatchNorm2d(256, eps=1e-05, momentum=0.1, affine=True, track_running_stats=True)
        (_Convolutional__activate): LeakyReLU(negative_slope=0.1, inplace=True)
      )
      (2): Convolutional(
        (_Convolutional__conv): Conv2d(256, 128, kernel_size=(1, 1), stride=(1, 1), bias=False)
        (_Convolutional__norm): BatchNorm2d(128, eps=1e-05, momentum=0.1, affine=True, track_running_stats=True)
        (_Convolutional__activate): LeakyReLU(negative_slope=0.1, inplace=True)
      )
      (3): Convolutional(
        (_Convolutional__conv): Conv2d(128, 256, kernel_size=(3, 3), stride=(1, 1), padding=(1, 1), bias=False)
        (_Convolutional__norm): BatchNorm2d(256, eps=1e-05, momentum=0.1, affine=True, track_running_stats=True)
        (_Convolutional__activate): LeakyReLU(negative_slope=0.1, inplace=True)
      )
      (4): Convolutional(
        (_Convolutional__conv): Conv2d(256, 128, kernel_size=(1, 1), stride=(1, 1), bias=False)
        (_Convolutional__norm): BatchNorm2d(128, eps=1e-05, momentum=0.1, affine=True, track_running_stats=True)
        (_Convolutional__activate): LeakyReLU(negative_slope=0.1, inplace=True)
      )
    )
    (_FPN_YOLOV3__conv2_0): Convolutional(
      (_Convolutional__conv): Conv2d(128, 256, kernel_size=(3, 3), stride=(1, 1), padding=(1, 1), bias=False)
      (_Convolutional__norm): BatchNorm2d(256, eps=1e-05, momentum=0.1, affine=True, track_running_stats=True)
      (_Convolutional__activate): LeakyReLU(negative_slope=0.1, inplace=True)
    )
    (_FPN_YOLOV3__conv2_1): Convolutional(
      (_Convolutional__conv): Conv2d(256, 75, kernel_size=(1, 1), stride=(1, 1))
    )
  )
  (_Yolov3__head_s): Yolo_head()
  (_Yolov3__head_m): Yolo_head()
  (_Yolov3__head_l): Yolo_head()
)
Train datasets number is : 16551
Epoch:[ 0 | 19 ]    Batch:[ 0 | 2068 ]    loss_giou: 8.4715    loss_conf: 2101.2856    loss_cls: 111.7281    loss: 2221.4854    lr: 0.0001
Epoch:[ 0 | 19 ]    Batch:[ 100 | 2068 ]    loss_giou: 5.6838    loss_conf: 45.7363    loss_cls: 44.5156    loss: 95.9357    lr: 0.0001
…
